…
/home/shenning/classifier.py:225: DeprecationWarning: `np.int` is a deprecated alias for the builtin `int`. To silence this warning, use `int` by itself. Doing this will not modify any behavior and is safe. When replacing `np.int`, you may wish to use e.g. `np.int64` or `np.int32` to specify the precision. If you wish to review your current use, check the release note link for additional information.
Deprecated in NumPy 1.20; for more details and guidance: https://numpy.org/devdocs/release/1.20.0-notes.html#deprecations
  conf_mats = np.zeros((5,5), dtype=np.int)

=== Test on chc001-nsrr. train_data(15860), test_data(160) ===
Define dataloader
==== START TRAINING ====
MultiCNNC2CM(
  (multicnn_se): MultiCNN_SE(
    (multicnn): MultiScalerCNN(
      (cnnblock1): CNNBlock(
        (cnnblock): Sequential(
          (0): SingleConv(
            (conv): Sequential(
              (0): Conv2d(3, 64, kernel_size=(1, 50), stride=(1, 2))
              (1): BatchNorm2d(64, eps=1e-05, momentum=0.1, affine=True, track_running_stats=True)
              (2): ReLU(inplace=True)
            )
          )
          (1): MaxPool2d(kernel_size=(1, 4), stride=(1, 4), padding=0, dilation=1, ceil_mode=False)
          (2): Dropout(p=0.5, inplace=False)
          (3): SingleConv(
            (conv): Sequential(
              (0): Conv2d(64, 128, kernel_size=(1, 3), stride=(1, 1))
              (1): BatchNorm2d(128, eps=1e-05, momentum=0.1, affine=True, track_running_stats=True)
              (2): ReLU(inplace=True)
            )
          )
          (4): MaxPool2d(kernel_size=(1, 4), stride=(1, 4), padding=0, dilation=1, ceil_mode=False)
          (5): SingleConv(
            (conv): Sequential(
              (0): Conv2d(128, 128, kernel_size=(1, 3), stride=(1, 1))
              (1): BatchNorm2d(128, eps=1e-05, momentum=0.1, affine=True, track_running_stats=True)
              (2): ReLU(inplace=True)
            )
          )
          (6): MaxPool2d(kernel_size=(1, 4), stride=(1, 4), padding=0, dilation=1, ceil_mode=False)
        )
      )
      (cnnblock2): CNNBlock(
        (cnnblock): Sequential(
          (0): SingleConv(
            (conv): Sequential(
              (0): Conv2d(3, 64, kernel_size=(1, 20), stride=(1, 2))
              (1): BatchNorm2d(64, eps=1e-05, momentum=0.1, affine=True, track_running_stats=True)
              (2): ReLU(inplace=True)
            )
          )
          (1): MaxPool2d(kernel_size=(1, 4), stride=(1, 4), padding=0, dilation=1, ceil_mode=False)
          (2): Dropout(p=0.5, inplace=False)
          (3): SingleConv(
            (conv): Sequential(
              (0): Conv2d(64, 128, kernel_size=(1, 3), stride=(1, 1))
              (1): BatchNorm2d(128, eps=1e-05, momentum=0.1, affine=True, track_running_stats=True)
              (2): ReLU(inplace=True)
            )
          )
          (4): MaxPool2d(kernel_size=(1, 4), stride=(1, 4), padding=0, dilation=1, ceil_mode=False)
          (5): SingleConv(
            (conv): Sequential(
              (0): Conv2d(128, 128, kernel_size=(1, 3), stride=(1, 1))
              (1): BatchNorm2d(128, eps=1e-05, momentum=0.1, affine=True, track_running_stats=True)
              (2): ReLU(inplace=True)
            )
          )
          (6): MaxPool2d(kernel_size=(1, 4), stride=(1, 4), padding=0, dilation=1, ceil_mode=False)
        )
      )
      (dropout): Dropout(p=0.5, inplace=False)
    )
    (se): SELayer(
      (avg_pool): AdaptiveAvgPool2d(output_size=1)
      (fc): Sequential(
        (0): Linear(in_features=128, out_features=8, bias=False)
        (1): ReLU(inplace=True)
        (2): Linear(in_features=8, out_features=128, bias=False)
        (3): Sigmoid()
      )
    )
  )
  (conv1): SingleConv(
    (conv): Sequential(
      (0): Conv2d(128, 128, kernel_size=(1, 7), stride=(1, 3))
      (1): BatchNorm2d(128, eps=1e-05, momentum=0.1, affine=True, track_running_stats=True)
      (2): ReLU(inplace=True)
    )
  )
  (conv2): SingleConv(
    (conv): Sequential(
      (0): Conv2d(128, 128, kernel_size=(1, 3), stride=(1, 3))
      (1): BatchNorm2d(128, eps=1e-05, momentum=0.1, affine=True, track_running_stats=True)
      (2): ReLU(inplace=True)
    )
  )
  (conv2_ss1): SingleConv(
    (conv): Sequential(
      (0): Conv2d(128, 5, kernel_size=(1, 4), stride=(1, 1))
      (1): BatchNorm2d(5, eps=1e-05, momentum=0.1, affine=True, track_running_stats=True)
      (2): ReLU(inplace=True)
    )
  )
  (out_ss): OutSleepStage(
    (outsleepstage): Conv2d(5, 5, kernel_size=(1, 1), stride=(1, 1))
  )
  (conv3): SingleConv(
    (conv): Sequential(
      (0): Conv2d(128, 256, kernel_size=(5, 1), stride=(1, 1))
      (1): BatchNorm2d(256, eps=1e-05, momentum=0.1, affine=True, track_running_stats=True)
      (2): ReLU(inplace=True)
    )
  )
  (out_d): OutDiagnosis(
    (fc): Sequential(
      (0): Flatten(start_dim=1, end_dim=-1)
      (1): Linear(in_features=1024, out_features=256, bias=True)
      (2): ReLU(inplace=True)
      (3): Linear(in_features=256, out_features=1, bias=True)
    )
  )
)
nohup: ignoring input
cuda:0
Subjects num: 78

2.5min inputs: chc001-nsrr (160)
2.5min inputs: chc004-nsrr (213)
2.5min inputs: chc005-nsrr (190)
2.5min inputs: chc006-nsrr (165)
2.5min inputs: chc008-nsrr (192)
2.5min inputs: chc009-nsrr (178)
2.5min inputs: chc010-nsrr (172)
2.5min inputs: chc012-nsrr (184)
2.5min inputs: chc013-nsrr (188)
2.5min inputs: chc014-nsrr (191)
…
